global_model.pth (torch, 406615 bytes, 67 tensors)

input_projection.0.weight f4 [128, 96]
000000 a9 3a ff 3d 7d 85 a0 bd b7 03 49 3d b8 43 1b 3e
       0.124623604 -0.07837961 0.04907581 0.15162551
000010 61 45 04 3d f9 98 bd bd ce 59 09 3e 37 be a3 3c
       0.032292727 -0.09257693 0.13413164 0.019988162
000020 6b 43 ad 3d a3 9b 02 3e cd c9 40 3e 67 53 1d 3e
       0.084601246 0.12754683 0.18826981 0.15363847
000030 bd 6e 07 3e 27 4a c6 3d bf 77 8b 3d ec 8b 43 bd
       0.13225837 0.09682112 0.06809949 -0.04774086
000040 8c ae 67 be 4c 4b c0 bd 67 1c a1 bc 1f 4d b3 bc
       -0.22625178 -0.09389362 -0.019666864 -0.02188736
000050 d3 19 e7 3d 04 e5 f2 3d e8 86 6b 3d ca b7 77 3e
       0.112842225 0.118600875 0.057501704 0.24191204
000060 96 2b 2f bd 42 f3 d4 3d f6 95 04 3e dc 85 40 bd
       -0.042766176 0.1039796 0.1294783 -0.04700266
000070 9b 20 cc 3d 60 5e ae 3d 88 94 01 3d b3 a5 28 3e
       0.099671565 0.08514094 0.03163579 0.16469459
000080 66 3a bc 3d c6 12 0e 3b 1d 51 9b be c5 77 e5 3e
       0.09190826 0.002167867 -0.30335322 0.4481794
000090 78 bd 8a 3d bd 7d aa 3a dc 7e 1c bf 08 60 50 3e
       0.067744195 0.0013007444 -0.6113107 0.20349133
0000a0 1e c5 ba 3d a4 ee 64 bd da ae 30 bc 37 a1 47 3e
       0.09119628 -0.055891648 -0.010783875 0.19495092
0000b0 dd 32 68 be 4e 2a 02 3f a3 57 11 3f e1 77 5d 3d
       -0.22675653 0.508458 0.5677435 0.054069404
0000c0 e3 ce 01 bf 51 03 ef 3c 81 11 86 bd 3b 54 18 bc
       -0.5070631 0.029176386 -0.06546307 -0.009297426
0000d0 ae 01 13 bf 9c 37 1e 3d fd c1 c3 be a2 fc a7 bd
       -0.5742444 0.038627252 -0.3823394 -0.08202483
0000e0 5d 32 68 bd 1e 50 c4 bc 1f 7c 32 be 3a eb 96 bc
       -0.056688655 -0.023963984 -0.17430161 -0.018422712
0000f0 8a 04 9e 3e ce 4d 92 3e 59 e8 19 bf fe e2 be be
       0.30862838 0.28574985 -0.6012016 -0.37282556
000100 0e 3e 20 3d f8 bc 20 be 06 e9 5f 3d 3a e0 07 3e
       0.03912168 -0.15697086 0.054665588 0.1326913
000110 31 c6 f4 be a1 25 2d 3d eb d4 12 bf 83 4e 1e 3d
       -0.47807458 0.042272214 -0.5735614 0.038649093
000120 d5 1b cb 3d c0 2a d9 bb 3c 51 0b 3d 4b 2e 85 be
       0.09917418 -0.0066274107 0.034013018 -0.2601188
000130 b7 e3 14 3d 39 5a ad 3d 6e 05 61 bd 28 a0 75 3d
       0.03634998 0.08464474 -0.05493682 0.05996719
000140 a6 19 19 3d be 75 94 3d 74 2e 40 3e 2f 05 c7 3b
       0.037377976 0.0724902 0.1876772 0.006073616
000150 8b 7a 03 3e 6f 68 05 be 54 33 ba bc 9b 4b 4d bd
       0.12839715 -0.1302812 -0.022729553 -0.05012093
000160 7e f7 e7 bc 8b 92 0d 3e 5c 52 0f 3e e5 9f a4 bc
       -0.028316256 0.13825433 0.13996261 -0.020095775
000170 06 f4 9f bd 43 de ed 3b ff 8f 5d 3e 9e 2d 80 3e
       -0.07810216 0.0072591617 0.21636961 0.25034803
000180 55 0e c5 3d 23 39 2d bd 1e 54 29 be 83 83 6c bd
       0.09621874 -0.042290818 -0.16535994 -0.057742607
000190 93 a0 10 be 81 fe 37 3d ba c9 88 bc 13 11 20 3f
       -0.14123754 0.04492045 -0.016697753 0.62526053
0001a0 4b 4d 75 3d fb 17 01 3e 6b d1 53 bd e6 c9 06 3d
       0.059888165 0.12606804 -0.05171339 0.03290739
0001b0 b8 65 ed bd 63 35 17 be 44 4d 34 be 4a fc dc bd
       -0.11591667 -0.14766459 -0.176076 -0.10790308
0001c0 35 d4 d3 be f3 20 90 bd 85 b8 f6 bd 68 2e 19 3d
       -0.4137284 -0.070375346 -0.12046913 0.037397772
0001d0 f2 77 97 bc 6a e8 bb 3b 13 67 69 be aa 25 e1 3c
       -0.018489812 0.005734493 -0.22793226 0.02748378
0001e0 fc 56 8a 3d 64 91 da 3d 8d 52 61 3e d2 78 49 3e
       0.06754872 0.10672262 0.22004147 0.19674996
0001f0 d8 30 6d 3e c2 c7 5a 3e e1 fb af bd be 9b 92 3d
       0.23163164 0.21365264 -0.08592964 0.07158612
000200 9e 6f 17 3c 72 31 65 3b 72 16 82 be dc d6 69 be
       0.00924292 0.0034972099 -0.2540775 -0.22835869
000210 f2 5e f9 3c 9b 6d 2a 3e 4e 3d 00 bf 36 47 a2 3d
       0.030440781 0.16643374 -0.50093544 0.07923739
000220 76 bb 0e be 1a ee 4f be 6e f7 3b 3e b3 f3 ac 3d
       -0.13938698 -0.20305672 0.18356106 0.084449194
000230 c2 6b 96 bb f8 93 02 3e ef 5d c2 ba 7d ae 2e 3d
       -0.0045904825 0.12751758 -0.001482902 0.042646874
000240 d7 a6 d4 be 97 19 1a 3e 26 dd 98 bd e4 74 78 3e
       -0.4153354 0.15048824 -0.07464056 0.2426334
000250 ea 5a a2 be 72 cb b6 3e 9b 7d 87 be 85 07 6a 3e
       -0.31709987 0.3570209 -0.26463017 0.22854431
000260 d7 89 9f 3e 8f 00 06 bf 06 2e 8e 3e be 74 65 3e
       0.3115985 -0.523446 0.27769488 0.22407815
000270 74 1e 6c 3d 64 8a 04 be 45 87 23 be db 7c 7c be
       0.05764623 -0.12943417 -0.1596957 -0.24657004
000280 da 52 21 bd 20 e9 47 3d fd c7 bd 3e 48 84 f0 3d
       -0.039385654 0.04880631 0.3706664 0.11743981
000290 59 21 17 be f9 da 8a 3e f9 57 bf be 75 c7 4c 3e
       -0.14758815 0.27120188 -0.37371805 0.19997962
0002a0 41 ee 9c 3e 49 01 91 3d 2d 9b 95 3e 8c 0e 2d 3e
       0.30650523 0.07080323 0.29219952 0.1690008
0002b0 c6 01 1b bf b1 a5 b1 3e 4f a1 b6 be 90 a9 67 bc
       -0.6054958 0.34696725 -0.35669944 -0.014139548
0002c0 7c 79 0c bd 3c 75 fc 3d 3e 8d 82 3e 67 ce 0e 3e
       -0.034295544 0.12327048 0.25498384 0.13945924
0002d0 13 85 6d 3e 64 8c 2a bd 3a 10 c1 3d 07 fd 25 bd
       0.23195295 -0.041637793 0.09426923 -0.04052451
0002e0 c6 cb f5 3d 54 a0 92 3d be 4a 0d 3e f0 2d f9 3a
       0.12001757 0.071594864 0.13798043 0.0019010883
0002f0 c3 27 f3 bb 3e f6 2a 3e 6d 70 c6 bd bd c7 23 be
       -0.0074205115 0.16695496 -0.09689412 -0.15994163
000300 a3 c4 b8 bc 49 ec c1 3c 26 b6 1d 3d 8a fa 43 bf
       -0.022554701 0.02367224 0.03850379 -0.7655417
000310 f2 94 c0 3d b3 09 1b 3f 3a f5 aa 3c b6 ce 31 3f
       0.09403409 0.60561675 0.020868886 0.6945604
000320 f2 f3 83 bd 13 fd a6 3d 65 bb 84 be 04 48 2e bf
       -0.06443013 0.08153739 -0.2592422 -0.6807864
000330 db 9c 70 3d 55 a9 17 3d 3d 60 1a bb 4b 09 59 3d
       0.05874334 0.037026722 -0.0023555898 0.052987378
000340 77 78 1e bf 74 ed ce 3d 3a 44 29 bd 67 49 38 3e
       -0.61902565 0.10103884 -0.04132483 0.17996751
000350 98 cb 60 3c 7c 3e 64 3c b4 67 bf 3c 07 57 df bd
       0.0137204155 0.013930913 0.02336488 -0.10905271
000360 ea 05 3a be 10 13 0e 3c c5 0e 2e 3b fa e5 a4 be
       -0.18166319 0.008671537 0.0026559096 -0.32206708
000370 19 db 89 bd 82 c8 ef bd 13 34 0d be 5f 59 54 be
       -0.06731243 -0.11708166 -0.13789396 -0.20737217
000380 90 ab 90 be 2f 1a 4b 3d 08 82 99 be 26 5f 45 be
       -0.28255892 0.049585517 -0.29982018 -0.19274577
000390 ba 9f 55 be ae 40 3f be 13 8b dc be e0 79 17 3e
       -0.20861712 -0.18677017 -0.43074855 0.14792585
0003a0 f3 a1 d5 3d d5 6e ed bd 2a c5 07 be 9c b0 c8 bd
       0.1043128 -0.11593405 -0.13258806 -0.097993106
0003b0 2d c5 d0 3d 9f 28 2f 3e 03 b0 69 3d 6f d2 15 3d
       0.10193858 0.1710534 0.057052623 0.03657764
0003c0 a9 37 6a be 9c 5f cc bc 34 94 e0 bd 91 82 fe bd
       -0.22872795 -0.024947934 -0.109657675 -0.12427247
0003d0 00 3e 2b bf 0a 60 16 be 06 4c 9f be 87 3f b0 bc
       -0.6689148 -0.14685073 -0.3111269 -0.021514667
0003e0 96 f7 82 bc 05 21 4c 3d 4d a2 6e 3d c0 ab 44 3d
       -0.015987199 0.049836177 0.05826025 0.048015356
0003f0 66 da 4e 3d 43 a5 31 bd d5 38 d6 be 00 43 cf be
       0.05050125 -0.043370496 -0.41840234 -0.40480804

input_projection.0.bias f4 [128]
000000 36 80 a4 bc cd 13 e1 bc 1b 77 92 3c 2f 0c 00 bd
       -0.020080667 -0.027475262 0.01787906 -0.03126162
000010 c0 d0 9e 3c e9 b2 93 3c 80 5c a3 3b 8b b6 5a 3c
       0.01938665 0.018029647 0.004985392 0.013349186
000020 57 d6 98 3c 15 15 19 3c c1 d0 84 bc 84 e0 f4 3a
       0.018656893 0.009343405 -0.016212823 0.0018682634
000030 6a 78 d9 3b 2c e3 b5 bb da b3 de b9 3b 48 8a 3c
       0.006636669 -0.0055507626 -0.0004247714 0.016880145
000040 8a 4c 46 3c ad 32 29 bb d1 89 de 3c 17 fd df 3c
       0.012103209 -0.0025817559 0.027165325 0.027342362
000050 8f 07 ca 3b fb 35 28 3c c3 7e be 3b af 59 e3 3b
       0.006165452 0.010266776 0.005813451 0.0069381814
000060 b6 71 d6 bc e4 e8 32 bc 95 50 48 3c 9f 7a a4 3c
       -0.026177268 -0.010919783 0.0122262435 0.020078002
000070 be cd ef 3b 09 9f 8e 3c 72 96 02 bc f0 c9 88 3b
       0.0073182276 0.017409818 -0.007970439 0.0041744635
000080 3e 79 da bb a0 09 3b 3a 3a 03 01 3b 51 4b 06 3b
       -0.006667285 0.0007134918 0.001968576 0.002049167
000090 1d ad c3 3a 69 43 c1 3c 8e d9 70 bc e8 a6 b2 bc
       0.0014928911 0.023591714 -0.014700307 -0.021808103
0000a0 62 cb 66 bc 58 39 90 3a 22 2f 8b bb 04 64 14 bc
       -0.014086576 0.0011003418 -0.004247562 -0.009057049
0000b0 83 e2 1f ba 19 b1 46 bc 1a 40 d8 bb 43 fb d0 39
       -0.00060991215 -0.012127184 -0.0065994384 0.00039860056
0000c0 7e d1 2e 3d 84 3e 99 bb ce 7c f0 3b af 82 3d 3c
       0.042680256 -0.004676642 0.0073390966 0.011566802
0000d0 83 20 66 3c 09 b8 75 bb c9 bf 68 3d 86 d7 aa bc
       0.014045837 -0.0037493727 0.056823526 -0.020854723
0000e0 39 4e 72 3c 53 e1 78 3c f5 62 ac 3b 32 4c dd 3c
       0.014789158 0.01519044 0.00526082 0.027013872
0000f0 76 d7 80 3b 15 b0 2d 3c 09 7f bd 3c b4 32 99 3c
       0.003931935 0.010601063 0.023131864 0.018700935
000100 3d 72 a2 bb 70 bb 2e 3d e4 e1 9a ba 1a c4 37 bc
       -0.004957466 0.042659223 -0.0011816588 -0.011216188
000110 6e c8 b4 3c 17 8e e6 3b f9 9f f8 3c 47 29 0a 3c
       0.022068229 0.0070359814 0.030349718 0.008432693
000120 04 1f cd 3c 5e 6a 1b 3c 4f c2 cb bb e7 99 b5 bb
       0.025039203 0.009485809 -0.0062182317 -0.005542028
000130 2b 80 5b 3a e3 dd b7 3c cf 88 71 3c f2 77 b0 3a
       0.00083732855 0.022444671 0.01474209 0.0013463481
000140 2b 76 cd bc 72 ef 0a bd e4 e6 ae 3b 58 4f 21 3c
       -0.025080761 -0.03391976 0.005337583 0.009845577
000150 8b 07 6a bc ce 6b fe bc af fc 67 bc bb 28 16 bd
       -0.014284025 -0.031057265 -0.014159366 -0.036659937
000160 a7 d5 62 3c 6d 64 48 3c 83 6f df 3c cd 6c ab 3c
       0.013844884 0.012230975 0.027274853 0.020925904
000170 24 55 b4 bb 80 53 e6 3b 1c 48 d4 bc 02 fe e6 39
       -0.0055033136 0.007028997 -0.02591329 0.0004405827
000180 cb 52 a6 3a 3e bf a7 bc e9 98 a4 3c d2 fb 87 3b
       0.0012689469 -0.020476934 0.020092444 0.0041498924
000190 30 dd 6c bc 64 9b 76 3d 5b eb 9c bc 8f 71 68 3c
       -0.014457032 0.060206786 -0.019155195 0.014187231
0001a0 21 a6 3a bc 18 f1 a6 bb 75 10 1f bc 2d ab a6 bc
       -0.011392147 -0.0050946586 -0.0097085135 -0.020345295
0001b0 92 50 aa 3c e7 8f de 3a af 04 36 bc 9a 44 bf 3b
       0.020790372 0.0016980142 -0.011109515 0.0058370354
0001c0 a4 73 84 bc 67 f1 9b bc f3 1b 27 3d ff 4f 09 bc
       -0.016168423 -0.019036008 0.04079814 -0.008380889
0001d0 ac e2 b1 3c 61 44 de ba 3a bb 82 3b fb 9e 33 3c
       0.02171453 -0.0016957634 0.0039896043 0.010963197
0001e0 8d 28 9c 3b 42 51 1f 3c 47 e0 93 3c ff 99 bd bc
       0.004765576 0.009723963 0.01805128 -0.02314472
0001f0 2f 4f 66 ba d1 b5 f7 bc c7 1d 5c bc 4f ff 4b bc
       -0.0008785603 -0.030238064 -0.013434834 -0.012451007

input_projection.1.weight f4 [128]
000000 4d b4 90 3f 5c f0 86 3f f6 79 53 3f 2c e0 4b 3f
       1.1305023 1.0542102 0.8260797 0.79638934
000010 3d fc 5d 3f 33 20 80 3f ec 41 6d 3f 46 66 84 3f
       0.8671301 1.0009826 0.92678714 1.0343711
000020 19 8c 70 3f 60 fb 72 3f c7 33 ae 3f 29 1e 7e 3f
       0.9396377 0.9491482 1.3609551 0.9926477
000030 d7 6c a1 3f b7 20 6c 3f e1 2b 57 3f ba 0f 83 3f
       1.261134 0.9223742 0.8405133 1.0239174
000040 be a2 86 3f d3 19 92 3f a1 a3 8f 3f fc df ae 3f
       1.0518415 1.1414131 1.122181 1.3662105
000050 a8 30 54 3f 7d 06 71 3f 95 1f 83 3f e1 1b 9f 3f
       0.82886744 0.94150525 1.0244013 1.2430383
000060 1b 12 84 3f 33 92 ab 3f 6c 4e 6c 3f 47 33 7c 3f
       1.0318025 1.3403991 0.9230716 0.98515743
000070 d2 22 4e 3f 5f a3 5a 3f de d0 8c 3f a9 6d b3 3f
       0.8052188 0.85405535 1.1001241 1.4017841
000080 8b 5e 95 3f 99 32 6c 3f 9c d0 60 3f aa 4a 6a 3f
       1.1669477 0.92264706 0.8781831 0.9152018
000090 64 67 78 3f 7a 73 99 3f 96 9b 25 3f 0b 11 61 3f
       0.9703276 1.1988366 0.6469053 0.8791663
0000a0 94 9f 9a 3f 04 42 9c 3f 67 c2 46 3f 42 b3 87 3f
       1.2079949 1.2207646 0.77640384 1.060158
0000b0 44 18 bf 3f 50 80 66 3f 3d 84 47 3f 0f 49 2c 3f
       1.492928 0.9003954 0.77936155 0.6729898
0000c0 e6 53 6f 3f a7 b6 8f 3f 40 43 4f 3f 07 b6 6f 3f
       0.93487394 1.1227616 0.8096199 0.93637127
0000d0 01 80 71 3f 65 c4 43 3f f5 34 78 3f 83 9e 9c 3f
       0.94335943 0.7647155 0.96955806 1.2235874
0000e0 bc b8 43 3f ac ae 4d 3f b9 92 97 3f 0f 8b 8e 3f
       0.7645376 0.80344653 1.1841651 1.1136187
0000f0 34 4f 76 3f 0c 49 af 3f 1a 72 7a 3f a5 db 4f 3f
       0.96214604 1.3694167 0.97830355 0.81194526
000100 9f 7d 79 3f 31 fa 86 3f 5a 89 94 3f fa 61 71 3f
       0.9745731 1.0545102 1.1604416 0.94290125
000110 c5 ab 6f 3f 81 93 49 3f fc d5 98 3f a6 78 82 3f
       0.93621475 0.787407 1.1940303 1.0193069
000120 a7 cc 86 3f 28 10 6b 3f 37 fb 4d 3f 92 22 2a 3f
       1.0531205 0.9182153 0.8046145 0.66459
000130 69 47 5f 3f 64 9b 37 3f 27 4e 6a 3f 0b 1a 3b 3f
       0.8721834 0.7172148 0.915255 0.73086613
000140 60 cc 87 3f 14 13 7a 3f 2f fa 94 3f 45 d0 7d 3f
       1.0609245 0.9768536 1.163885 0.9914592
000150 60 f4 44 3f c4 4e 7c 3f c1 31 60 3f 53 cc 5a 3f
       0.76935387 0.98557687 0.8757592 0.85468024
000160 4d 4f 68 3f 8e 66 62 3f 9e de 76 3f c9 24 67 3f
       0.90746003 0.88437736 0.96433437 0.90290505
000170 bc 3d 38 3f 7f 16 90 3f 91 c4 41 3f cf 29 47 3f
       0.719692 1.1256865 0.7569056 0.7779817
000180 e9 5f 72 3f 2b 1b 8c 3f 80 66 59 3f 45 25 4c 3f
       0.946776 1.0945791 0.8492203 0.7974437
000190 b8 a4 5d 3f 7d af 64 3f 8e a4 54 3f 25 4b 8e 3f
       0.86579466 0.89330274 0.8306359 1.1116682
0001a0 7f 91 36 3f 37 7c 2b 3f 8a 98 a1 3f 26 42 55 3f
       0.7131576 0.6698641 1.2624676 0.8330406
0001b0 e4 c0 7d 3f 58 ec 40 3f 99 22 86 3f a0 9f 72 3f
       0.9912245 0.7536063 1.0479308 0.9477482
0001c0 5c 30 7e 3f 94 d9 69 3f 98 ef 58 3f fd ed 97 3f
       0.9929254 0.9134762 0.8474059 1.1869503
0001d0 ae 6d 36 3f 56 4e 8a 3f 12 57 75 3f 5c 58 a1 3f
       0.7126111 1.0805156 0.95835984 1.260509
0001e0 8a 89 bc 3f fc a9 9e 3f ee 82 52 3f ab 44 b4 3f
       1.4729474 1.2395625 0.8223103 1.4083456
0001f0 7f 66 55 3f b2 ec 80 3f cb 0e 88 3f 92 57 77 3f
       0.8335952 1.0072234 1.0629514 0.96617997

input_projection.1.bias f4 [128]
000000 c7 0f fb 3d ad f7 62 be 4c 15 f6 bc 95 f6 d0 be
       0.12258869 -0.22164793 -0.030039452 -0.40813127
000010 a8 5a 1b be 73 51 c4 bd c9 54 e2 3e d3 2f 9e be
       -0.15171301 -0.09585848 0.4420531 -0.30895862
000020 77 ed 22 3e ac 19 26 3e 71 79 df be e2 f4 83 be
       0.15910898 0.1622073 -0.4364734 -0.25772768
000030 58 70 a2 3e 2a 03 2e 3e 89 ce d5 bd 35 eb ff 3d
       0.31726336 0.16993394 -0.10439784 0.12496034
000040 72 09 f7 bd 6e df 93 3a 4c 00 c6 be b1 56 e7 be
       -0.120623484 0.0011281797 -0.38672101 -0.45183328
000050 7f 6a d0 be e1 2d a9 3e ac c7 db bd c6 93 d7 bd
       -0.4070625 0.33042815 -0.10731444 -0.105262324
000060 c1 34 89 be 58 9f 76 3e e6 79 6b be 42 27 88 be
       -0.2679806 0.24084222 -0.2299572 -0.2659245
000070 c8 61 b4 3e 65 35 70 bd 78 4c c6 be dd 74 02 bf
       0.3523085 -0.05864467 -0.38730216 -0.5095957
000080 a7 b9 8a 3c a6 67 a4 be 84 6a 13 be 43 42 d2 bd
       0.016934229 -0.32110327 -0.14396101 -0.10266545
000090 a1 78 79 3e f3 64 84 3d eb 02 9b 3c 8b 82 d3 be
       0.24362423 0.06464567 0.01892229 -0.41310534
0000a0 bc 53 0a 3f c7 5f 0e 3e ad 1c 60 be 62 d2 26 bd
       0.5403402 0.13903724 -0.21885939 -0.04072798
0000b0 1e 04 a6 3d f2 bd 25 be c5 4c f4 3d 2b ce 56 3d
       0.08106254 -0.1618574 0.11928705 0.05244271
0000c0 7c 46 ed bd 7d 12 af 3e 37 08 28 3e 8c 94 d6 bc
       -0.115857095 0.34193793 0.16409384 -0.02619388
0000d0 50 d9 53 bd 64 29 e1 be 20 7c 0a be 32 79 da be
       -0.051720917 -0.4397689 -0.13523912 -0.4267059
0000e0 8c 5e 55 3e de 8e 25 3e 91 3f d5 bd b6 20 4c be
       0.20836848 0.16167781 -0.10412515 -0.19934353
0000f0 17 87 f8 be 0d 79 d8 be 87 87 9b be 0a 7f 3a 3e
       -0.48540565 -0.42279854 -0.30376837 0.18212524
000100 a1 c9 42 be c2 b3 3e be b0 a5 12 bd 9a fc 63 be
       -0.19022228 -0.1862326 -0.035802543 -0.22264329
000110 67 a8 82 be c1 27 2a 3e 90 b9 0b bd 9b 92 24 bc
       -0.25519106 0.16616727 -0.034112513 -0.010044719
000120 01 54 e6 bd df dc 75 3e 86 8b a5 3e 4a 9b ed bd
       -0.11246491 0.24010037 0.3233301 -0.11601885
000130 62 bf 16 bc 21 b4 9a be b6 13 18 3e 45 91 35 3e
       -0.009200903 -0.30215552 0.14851269 0.17731197
000140 b8 9b 01 3e b5 53 ef bd 81 1c aa 3d c4 a6 33 3e
       0.12657058 -0.11685888 0.08306218 0.17544085
000150 51 f2 61 3e ca 1e 18 be c6 ff 8f 3e 67 c5 78 3d
       0.22065093 -0.14855495 0.28124827 0.060735133
000160 c0 b7 aa 3d 91 9d d0 bd 51 3f e1 3d 32 a6 0d 3e
       0.08335829 -0.101863034 0.10998405 0.1383293
000170 ac 15 89 3b 2a 31 88 bd ec 17 82 bd 4e 3e 72 be
       0.0041834917 -0.06650002 -0.06352219 -0.2365658
000180 2a a7 ed 3d 25 85 24 be a9 fe fa bd 02 8a a7 3e
       0.1160415 -0.16066416 -0.12255604 0.3272248
000190 f6 c0 39 3b 9a 2b 10 be 99 cb c4 3d 01 d8 b5 3e
       0.0028343773 -0.14079133 0.09609146 0.3551636
0001a0 5a 34 0f 3e ca 5f 05 be 2d f9 f6 3d e7 3e 3c be
       0.13984814 -0.13024822 0.12059245 -0.1838337
0001b0 26 97 79 3d 3d be 1f 3d 60 89 40 3e 8f ee 1b be
       0.060935162 0.038999785 0.18802404 -0.15227722
0001c0 a3 36 7e 3e 34 ca 93 3d ba 67 c6 be 72 d6 0f be
       0.2482553 0.072163016 -0.38751012 -0.14046648
0001d0 79 eb 84 3e ac 8b e4 bb 70 52 44 3d 73 48 4b 3e
       0.259609 -0.006974658 0.04793018 0.19851856
0001e0 57 e7 1b 3d 9d d3 17 bf 22 3b 74 3e 02 4c b3 3c
       0.03806242 -0.5930727 0.23850682 0.02188683
0001f0 e4 6a 96 be f5 bf a7 bd ca 5c 10 bd 37 be 8c 3d
       -0.29378426 -0.0819091 -0.03524474 0.06872218

input_projection.1.running_mean f4 [128]
000000 43 b0 ac 3e bc f4 14 be b1 fb 3b 3d 98 d9 5e bf
       0.33728227 -0.14546484 0.04589433 -0.8705077
000010 7a 4d df bd d7 84 8a 3e 53 80 c2 3e 76 ff d0 bc
       -0.10903449 0.27054474 0.3798853 -0.025512438
000020 4a 0f ce 3e 2f e8 21 3e dd d9 c7 bf 6e 08 0a 3f
       0.4024604 0.15811227 -1.5613362 0.5391911
000030 47 5a 9b 3f 26 04 35 3f 13 05 26 be 5c 86 3b 3e
       1.2136925 0.70709455 -0.16212873 0.18312973
000040 e5 ae ee 3e 58 62 9e 3e fc 99 3c 3f 53 1b c3 bf
       0.4661781 0.30934405 0.7367246 -1.5242714
000050 cc 3f 15 bf 76 76 81 3e bf 8e 74 3e 6f e9 9b 3e
       -0.5830047 0.2528569 0.23882578 0.30451533
000060 c6 a0 29 bf 56 9e 88 3d b6 8f 82 be df 96 43 bd
       -0.66260946 0.06670825 -0.25500268 -0.047751304
000070 36 59 95 3d d5 2a ab 3c 78 ca 82 bf 52 28 60 bf
       0.07292406 0.020894447 -1.0218039 -0.87561524
000080 22 49 29 3f 3e 5d 1a bf 50 79 af 3e 56 76 98 3e
       0.66127217 -0.60298526 0.34272242 0.29777783
000090 e4 3b 8a 3e fb 26 87 3e a6 4a 08 bf 6c 51 29 bf
       0.26998818 0.26396927 -0.53238904 -0.66139865
0000a0 73 1e d1 3e 72 0c 06 3f 64 e5 05 bf a0 27 04 3f
       0.40843543 0.5236274 -0.5230315 0.5162296
0000b0 4a 59 8b 3e a4 53 95 3d 0d 77 26 3f ce b6 2c 3f
       0.2721656 0.07291344 0.6502541 0.6746644
0000c0 c1 03 56 bf c7 28 4c 3f 2f db 86 3f 8f 00 cb 3e
       -0.8359948 0.7974972 1.053564 0.39648864
0000d0 ab cb ad be 91 66 27 bf 09 18 0c bf 39 29 5b bf
       -0.3394445 -0.6539088 -0.54724175 -0.85609776
0000e0 65 b7 9c 3d bd a5 94 bd 07 2e 35 be 27 27 1c bf
       0.07652167 -0.072581746 -0.1769334 -0.6099724
0000f0 55 81 b1 be c8 b5 c0 bf 7d d8 19 bf 85 58 05 3d
       -0.34668985 -1.5055475 -0.6009596 0.032555122
000100 c8 9e c8 be 1b b5 ef be db 78 eb 3d 59 2d f3 be
       -0.3918364 -0.4681786 0.11497661 -0.47495535
000110 e1 b8 e0 3d 4c b2 9a 3f e9 53 c3 3d d3 96 74 be
       0.10972763 1.2085662 0.09537489 -0.2388566
000120 01 93 7c be a8 6d 72 3f e6 2d e3 3e ff c5 31 3f
       -0.24665453 0.9469857 0.44370955 0.69442743
000130 3d ae d0 3e c6 1d 72 bf 04 7d 6c 3e b0 99 f0 3e
       0.40757933 -0.9457668 0.23094565 0.46992254
000140 f2 64 8d 3f 27 f5 02 bf 58 f4 a3 3e 0f d8 1a bf
       1.1046431 -0.5115532 0.32022357 -0.6048593
000150 e0 b6 b2 3e 23 59 39 3f 58 1e 3c bd a7 9e 0d bf
       0.34905148 0.72401637 -0.045927376 -0.5532021
000160 d9 57 ae 3e d8 f6 0f be 87 09 7e 3e 6e 20 5f 3e
       0.34051397 -0.14059007 0.24808322 0.21789715
000170 a1 ce d2 be 92 34 e8 3e 6a 0c 52 3f 0f 9e 80 bf
       -0.4117327 0.45352608 0.8205019 -1.0048236
000180 7c 2e c3 3e 85 07 3e 3e b3 d1 d6 3d d2 76 c2 3e
       0.38121402 0.18557556 0.10489216 0.37981278
000190 e5 01 35 bf 6b bd 10 bf 37 a3 8d bf 4a a4 b4 3e
       -0.70706016 -0.5653903 -1.1065434 0.35281593
0001a0 95 2d 67 3f a2 7a 36 bf b8 81 94 3e 29 1f 0d bf
       0.9030393 -0.7128087 0.29005218 -0.5512567
0001b0 0d 9f 8b 3e b5 a7 20 3e bb 7f 0f bd ae 6f 8f be
       0.27269784 0.15688975 -0.035033923 -0.28014892
0001c0 67 ec b0 3e c5 cb f2 3e 75 34 99 be 50 f0 31 be
       0.3455536 0.4742109 -0.29922834 -0.17376828
0001d0 3c d5 50 bd f8 3f d1 3e 40 a9 1c 3f 25 de 37 3d
       -0.050984606 0.40869117 0.61195755 0.044889588
0001e0 3f 06 ba 3e 87 7a 83 be b5 f2 cd 3e b9 b1 1b 3f
       0.3633289 -0.25679418 0.40224233 0.6081806
0001f0 2b be c9 be 0e fe 87 3f 9a 36 1b 3e a3 9c 2a 3e
       -0.394029 1.0624406 0.15157548 0.16661315

input_projection.1.running_var f4 [128]
000000 b8 0f 3f 3e 2a 04 1a 3e 01 31 54 3e 31 a5 30 3e
       0.1865834 0.15040651 0.20721819 0.17250516
000010 34 2f 54 3e 13 e6 45 3e 02 2b 16 3e 62 05 6b 3e
       0.20721132 0.19326048 0.14664844 0.22951272
000020 94 5d 4c 3e 91 e1 80 3e bc 7b cf 3f 34 fe 64 3e
       0.19957572 0.25172094 1.6209636 0.22362596
000030 54 04 49 3e f7 78 32 3e 0e 7a de 3d 5b 69 0b 3e
       0.19630557 0.17428957 0.10863124 0.13614409
000040 68 4a 23 3e a7 10 67 3e 9c a7 4b 3e 89 a0 00 40
       0.15946352 0.22564946 0.19888157 2.0097983
000050 94 17 8b 3e f6 39 60 3e 45 98 16 3e a0 d3 5c 3e
       0.27166426 0.2189711 0.14706524 0.21565104
000060 7f 7b 45 3e 0e 68 08 3e 5a 02 35 3e c7 74 23 3e
       0.19285391 0.13320944 0.17676678 0.15962516
000070 1d 75 67 3d f6 02 2a 3e c2 12 50 3f 57 ed 4b 3f
       0.056508172 0.16602692 0.8127862 0.79659027
000080 3a b5 c8 3e 1f 01 f0 3d 51 fb ef 3d 48 af 15 3e
       0.39200765 0.11718964 0.11717857 0.14617646
000090 d8 15 36 3e 55 4a 39 3e 6e a8 ed 3d b7 4b 04 3e
       0.1778177 0.18094762 0.11604391 0.12919508
0000a0 3c 33 69 3e f4 34 84 3e 04 9e 40 3e 65 cb ab 3d
       0.2277345 0.2582165 0.18810278 0.08388404
0000b0 65 c1 b3 3d 55 41 0f 3e 91 be 39 3e 21 e8 a5 3e
       0.087771215 0.13989766 0.18139102 0.32403663
0000c0 8e 74 6a 3e bf b9 dd 3d 2b 24 86 3f 21 c0 44 3e
       0.22896025 0.10826444 1.0479788 0.19213916
0000d0 b6 11 ae 3d f0 96 6c 3e 15 a0 04 3e 7a dd 47 3f
       0.08499472 0.23104453 0.12951691 0.7807232
0000e0 59 27 09 3e 15 49 02 3e c5 0f 3a 3e 79 6a 21 3e
       0.13393916 0.12723191 0.18170078 0.15763272
0000f0 d3 a3 47 3e 4e e4 f3 3f a3 ea fc 3d e5 2e ad 3d
       0.19496088 1.9054048 0.12349441 0.0845621
000100 be 02 10 3e c1 9f 11 3e f5 4f 8b 3e b9 69 c0 3d
       0.14063546 0.14221098 0.2720944 0.09395165
000110 48 3e 2d 3e e1 5f 89 3f 0f f3 9e 3e ad c0 1d 3e
       0.1691829 1.0732385 0.31044814 0.15405531
000120 e3 86 5f 3e 64 3e 54 3e 3c ef ef 3d 6e 64 8f 3e
       0.21828799 0.20726925 0.11715552 0.2800631
000130 40 7c 17 3e 54 f8 46 3e a8 41 45 3e f6 47 b5 3d
       0.14793491 0.19430667 0.19263327 0.08851616
000140 03 87 b2 3d 62 0d 22 3e 18 18 49 3e 51 f5 c3 3d
       0.08717158 0.15825418 0.19638097 0.09568275
000150 44 d1 01 3e 15 ff 3a 3e 08 b4 0f 3e ef 4b 2c 3e
       0.12677485 0.18261369 0.1403352 0.16825841
000160 68 6a 41 3e b0 a9 10 3e 02 b0 68 3d 4a 9c 03 3e
       0.18888247 0.1412723 0.05680848 0.12852588
000170 47 16 3b 3e e4 da 49 3e d9 f9 50 3e 88 12 83 3e
       0.18270217 0.19712406 0.2040781 0.25600076
000180 7e eb 3d 3e 1d 6e e8 3d ca 9d 20 3e af e0 95 3e
       0.18546864 0.113491274 0.15685192 0.29272982
000190 4f 55 49 3e 9f f0 08 3e 6e 55 3f 3e bf b6 ad 3e
       0.19661449 0.1337304 0.18684933 0.33928487
0001a0 5d 91 34 3f c2 02 a5 3e 82 2b 81 3d 90 5f f5 3d
       0.70534307 0.32228667 0.063071266 0.11981118
0001b0 13 94 54 3e f7 c4 00 3e ac f4 1a 3e 77 24 e5 3d
       0.20759611 0.12575136 0.15132397 0.11188596
0001c0 97 be 16 3e 2d 56 da 3d 76 03 31 3e 33 ad 3d 3e
       0.14721142 0.10660968 0.17286476 0.18523102
0001d0 13 5f 21 3e b9 98 01 3e 4f ab 23 3e b0 88 65 3e
       0.15758924 0.12655915 0.15983318 0.22415423
0001e0 3b af 3f 3e 2c f5 c2 3e 95 58 49 3e 23 b4 6f 3e
       0.18719189 0.38077676 0.19662698 0.2340856
0001f0 a6 dc 4b 3e 8f a8 21 3e c4 6d ba 3d e6 1c da 3d
       0.1990839 0.15786956 0.091029674 0.10650043

residual_blocks.0.linear1.weight f4 [96, 128]
000000 46 ee b1 3d 37 f2 88 3e 64 02 ed bd 9e 5c 6f 3e
       0.08688025 0.26747295 -0.115727216 0.23375174
000010 11 d3 05 3e 09 cb a7 3e 4e 88 20 bd e2 38 20 be
       0.13068797 0.3277209 -0.03919249 -0.15646699
000020 c9 49 34 bd 55 71 46 bb 48 53 0d be 04 64 18 bd
       -0.04401568 -0.0030279953 -0.138013 -0.037204757
000030 90 aa ef 3c bd 22 ca 3e 12 9b f8 3d 93 2b 08 be
       0.029256135 0.39479628 0.12138952 -0.13297872
000040 3b 02 f8 3c 36 1b 0c 3e ec c3 fe 3d 53 85 bf bd
       0.030274501 0.13682255 0.12439713 -0.093516015
000050 f8 e7 9f 3e d6 f1 67 3d d7 e2 0b 3d 4a a8 87 3e
       0.31231666 0.056627117 0.03415188 0.26495582
000060 a3 1b 0d bc 43 f3 e3 3d cc 57 32 3e ee fc ed 3d
       -0.008612546 0.11130383 0.17416304 0.11620508
000070 bf 25 91 3e 60 81 91 3e 6e 76 91 3c c7 d2 09 3e
       0.2834911 0.28419018 0.017756667 0.13459311
000080 e5 13 05 3d bf e1 6b 3c 27 5d 80 3d 6f 28 ac 3e
       0.032489676 0.014397084 0.062677674 0.33624598
000090 31 83 be 3e dc 20 b8 3e 84 0b 1f 3e 49 ff 14 3f
       0.37209466 0.3596257 0.15531737 0.58202034
0000a0 a7 a2 94 3e c8 82 61 3e f3 aa bf 3d d0 34 f8 3a
       0.29030344 0.22022545 0.09358778 0.0018936638
0000b0 bc fc d6 3c 67 53 98 bd 1d 0b 50 be 05 41 26 3e
       0.02624356 -0.07437783 -0.2031674 0.1623574
0000c0 9a b3 87 3e 0d a4 d8 bc 57 42 4e 3e 35 ff 89 bd
       0.26504213 -0.026445413 0.20142494 -0.0673813
0000d0 59 c3 5a be 16 62 c6 3d 94 23 93 bd 6b 38 84 3e
       -0.21363582 0.09686677 -0.0718452 0.25824293
0000e0 56 92 01 3f 58 30 91 3e 90 80 24 3e 99 80 66 be
       0.50613916 0.28357196 0.16064668 -0.22509994
0000f0 69 0b 5d 3e 98 73 5a 3e 1f 27 a7 3e 28 54 5a 3e
       0.21586384 0.21333158 0.32647035 0.21321166
000100 6f 20 10 3e 50 00 ee be f0 e5 85 3d bd 99 19 3e
       0.14074872 -0.46484613 0.06537998 0.15000053
000110 d7 21 87 3e 5e 1e b5 3c 30 49 a3 3e 62 dc ab 3e
       0.26393005 0.022109207 0.31891775 0.33566576
000120 78 3b 4f 3c ab 31 8d 3e 85 37 bd bb fa ac 8f 3e
       0.012648456 0.27576956 -0.0057744407 0.28061658
000130 76 0d a5 3e f6 ec 00 3d 4d 91 f0 3e c2 39 39 3e
       0.32236832 0.031475984 0.46985856 0.18088439
000140 c2 26 44 be 7d 41 33 3e 19 a0 23 3f 48 85 86 3e
       -0.1915541 0.1750545 0.63916165 0.2627356
000150 55 46 14 3e 1c 98 df 3e b7 5b e5 bb a4 fc f7 3c
       0.14479955 0.43670738 -0.0069994587 0.030271836
000160 b9 bd 92 3b 45 a2 25 3e 48 16 d8 bc ed a2 39 be
       0.004478183 0.16175182 -0.026377812 -0.18128558
000170 be 43 5c 3c 39 e6 c5 3c 3f a7 84 3e 85 9d 22 be
       0.013443885 0.02415763 0.2590885 -0.15880401
000180 90 08 29 3e 4f ce 5d bd f2 de 67 bd 1c be 96 bb
       0.16507173 -0.05415183 -0.0566091 -0.0046002995
000190 72 27 92 3e ee c9 76 3e eb 40 85 3e 4b 85 a7 3d
       0.2854572 0.24100468 0.2602609 0.081797205
0001a0 40 a6 ce bb a1 05 a1 ba 62 f1 6c 3e 95 5e 63 3e
       -0.0063064396 -0.0012285003 0.23138955 0.22204049
0001b0 75 2b 50 3e 4a 87 42 3d b6 2d d4 3d 89 e9 20 b9
       0.20329078 0.047492303 0.10360281 -0.00015345788
0001c0 b0 4d cd bb 12 90 06 bd 97 2b ac be 10 9f 35 be
       -0.0062653646 -0.03285224 -0.33627006 -0.17736459
0001d0 87 e6 5c 3e 87 04 a4 bc b8 56 92 3d 87 3b 87 3e
       0.21572314 -0.02002169 0.071454465 0.26412603
0001e0 c4 c1 85 bd 79 3d 09 bd dd 81 db 3d 17 0b 0e bd
       -0.065310985 -0.03350589 0.10718129 -0.034678545
0001f0 a5 68 5c be 67 1e 6b bc bf 01 90 bd f1 4a a9 3e
       -0.21524294 -0.01435051 -0.07031583 0.33064988
000200 01 51 1f 3e d3 e6 99 3d 68 17 fd 3d b5 49 b6 bd
       0.15558244 0.07514729 0.1235798 -0.08900777
000210 e6 fc 95 bd 71 84 a6 bd ae ec 8c be 2d 14 f3 bd
       -0.07323627 -0.0813073 -0.27524322 -0.118690826
000220 7e 50 4d bf 2e 61 09 bf e5 59 9e 3c 0e 7c 20 bf
       -0.80200946 -0.5366391 0.019329974 -0.6268929
000230 40 58 b4 bd 71 7a 0d 3e 07 0c d0 be 7a a6 5c bf
       -0.08805895 0.13816239 -0.40634176 -0.86191523
000240 1c 95 c9 bc 81 a1 b1 3d e4 0c e1 bd f6 29 d5 3d
       -0.024607234 0.086733826 -0.10988787 0.10408394
000250 f8 2c d5 be 91 3d a9 bc f6 a2 a8 be 49 32 71 3c
       -0.4163587 -0.02065924 -0.3293683 0.014721462
000260 6e 68 d8 bc f1 f2 9e 3d 41 bc 97 3d 19 55 fb bc
       -0.026416983 0.07761181 0.074089535 -0.030680226
000270 e5 c9 a8 be e2 59 c3 bd ed bc b6 3c ba 1a 44 3d
       -0.32966533 -0.09538628 0.022306884 0.04787705
000280 33 d5 1a bd 6a 89 4a be 07 33 3c be 88 a9 b7 bd
       -0.03780098 -0.19778982 -0.1837884 -0.089678824
000290 c2 9b 62 bd c6 2a 8c 3d c4 7a 2d 3d cf ef ff bd
       -0.055324323 0.06844096 0.042353407 -0.12496912
0002a0 c3 88 9f bd 7b 98 a1 3d 48 c3 0f be 38 eb 7a be
       -0.07789757 0.078904115 -0.14039338 -0.24503791
0002b0 c1 6a 03 3d 70 66 ac be 94 fa 81 bd e0 2d 59 be
       0.03208423 -0.33671904 -0.06346622 -0.21208906
0002c0 13 34 8b 3e 07 c8 e1 bd 3d aa 1b bd b0 53 8e 3d
       0.27188167 -0.1102448 -0.03800415 0.06949556
0002d0 ed 1c ac be 9d 7b b2 be 11 44 35 bd f8 bd 1a 3e
       -0.3361582 -0.34859934 -0.044254366 0.1511153
0002e0 bd cf ba bb 34 79 01 3d e9 85 1e be c8 4a d9 3c
       -0.005701034 0.03160973 -0.1548077 0.026524916
0002f0 2f 50 de bd 3f 93 f6 3c f7 09 15 3c 21 df 01 be
       -0.108551376 0.03009951 0.009096614 -0.12682773
000300 aa c6 93 bd be 20 8e 3d 92 89 b6 be 45 ee 01 be
       -0.072156265 0.06939839 -0.35651833 -0.12688549
000310 47 6d 22 3e 03 bb f2 3c c8 88 01 be 3c 70 c5 3e
       0.15861998 0.02963019 -0.12649834 0.3856219
000320 96 8b ef be ee 31 1f bd 65 fe cc be f7 db b0 be
       -0.46786183 -0.038865976 -0.40037838 -0.3454282
000330 dc d0 ea bd 2d cb 00 3e e0 2f 0e 3e 36 d9 f8 be
       -0.11465618 0.12577505 0.1388545 -0.4860322
000340 97 db 0c be 5f e0 50 be f4 e9 39 3d 93 d6 15 bc
       -0.13755642 -0.20398091 0.04538913 -0.009145397
000350 e1 d6 d0 3d f0 c5 21 3c 2d 88 ca bc 82 c9 5b be
       0.10197235 0.009873852 -0.024723137 -0.21463588
000360 ce ec 92 be 1f 6f 7d bd da 8e 92 be ed 8d df 3d
       -0.28696293 -0.06187355 -0.28624612 0.10915742
000370 ae c1 47 3e ff 92 fd be f8 b1 b6 be d2 8f 36 be
       0.19507477 -0.49526212 -0.35682654 -0.178283
000380 39 fa 50 3e 64 6c a3 3d 51 ea 30 3e 41 d8 28 3d
       0.20407952 0.07979658 0.17276885 0.04122186
000390 df 3d 1d be 8b c8 3a be 87 a5 8d bd 6a 59 bb 3d
       -0.15355633 -0.18240564 -0.069163375 0.09147914
0003a0 9e 0d a2 bd 7f fe 84 bd c8 c0 69 3e b0 ae dd 3d
       -0.079127535 -0.06493854 0.22827446 0.108243346
0003b0 ea 7f 64 be 15 d9 4b be 00 88 5d 3c 96 a9 2f bd
       -0.2231442 -0.19907029 0.013521194 -0.04288634
0003c0 93 e9 e2 3d 4c f7 36 bf 60 25 9d bc 5b ba 05 bd
       0.11079707 -0.71471095 -0.01918286 -0.032648426
0003d0 90 78 f7 3d 74 9a 31 be cd 48 72 bf d7 fa 15 be
       0.12083542 -0.17344075 -0.94642335 -0.14646469
0003e0 7b bd f0 3d 2b ab ae bd f0 06 88 be 30 4d 02 3c
       0.117548905 -0.085287414 -0.26567793 0.007952973
0003f0 b6 f0 10 be fe 11 df bd b0 92 e0 be 37 51 14 3d
       -0.14154324 -0.108921036 -0.43861914 0.036210265

residual_blocks.0.linear1.bias f4 [96]
000000 c9 5e c4 3a 4b 63 0e 3b f8 40 2a 3b 40 96 08 ba
       0.0014981861 0.0021726664 0.0025978666 -0.0005210377
000010 09 53 31 3b cc db 8b bb f5 30 48 3a e5 86 c2 ba
       0.002705755 -0.004268145 0.00076366897 -0.0014841227
000020 fd fb 33 3a 3c 71 bd ba 52 21 41 b7 21 91 89 ba
       0.0006865857 -0.0014453302 -1.1511454e-05 -0.0010495522
000030 03 27 df b8 c1 b1 47 ba 5e 21 e9 ba f3 29 8f ba
       -0.00010640735 -0.0007617735 -0.0017786433 -0.0010922536
000040 00 c1 41 ba 47 e2 7d 3a 45 10 ac ba 21 dd 99 38
       -0.0007391125 0.0009684902 -0.0013127407 7.336797e-05
000050 85 e5 fa 39 8b d8 07 39 c7 8a 73 ba 6c 7b 8d 3a
       0.0004785472 0.00012955272 -0.0009290394 0.0010794229
000060 e6 5b 75 37 95 76 3b 3a 26 7d cd 3a 5c 7d 25 ba
       1.4624535e-05 0.0007151154 0.0015677556 -0.00063129305
000070 2d a5 30 3a 34 d7 66 39 fb e5 b8 3a 36 32 1b ba
       0.00067384803 0.00022014679 0.0014106625 -0.0005920263
000080 b3 05 e4 b9 73 ee fd 39 b8 75 16 bb 1e 4b 30 ba
       -0.00043491795 0.0004843358 -0.002295835 -0.00067250605
000090 1b ac 8c ba bb 11 4f 3b d8 d8 4b ba 54 f8 12 bb
       -0.0010732444 0.0031596262 -0.00077761477 -0.0022425847
0000a0 45 9a f7 ba c4 66 aa b8 9a a6 1d bb dd 01 11 bb
       -0.001889058 -8.125373e-05 -0.00240556 -0.0022126355
0000b0 34 af 23 3b b0 80 9f 3a a8 7e 70 ba 2b 96 ff b9
       0.0024976255 0.0012169089 -0.00091741467 -0.00048749274
0000c0 dd d2 34 3a 0a 34 8d 37 8d 22 41 bb d8 37 21 3b
       0.0006897876 1.6832742e-05 -0.0029470057 0.0024599936
0000d0 01 be 2d 3a e8 67 9f 3a 2b fe 81 b9 50 92 2a ba
       0.0006627739 0.0012161704 -0.00024794167 -0.00065067876
0000e0 70 52 ca b9 bb b1 a5 ba 32 42 be 3a aa 4b b2 39
       -0.00038589863 -0.0012641469 0.0014515577 0.0003400718
0000f0 d0 b2 d8 3a 57 75 09 3a de 94 3c 3b 70 6c 3d ba
       0.0016532782 0.000524362 0.0028775255 -0.0007225936
000100 d7 99 bf 3a af 07 c1 ba 8c 02 93 ba c1 49 9d 3a
       0.0014617991 -0.0014727021 -0.0011215969 0.001200013
000110 03 50 03 ba 11 a2 ab 3a c0 b2 55 bb f7 92 21 bb
       -0.0005009176 0.0013094564 -0.0032607764 -0.0024654248
000120 45 44 a2 b6 1e 87 ee 38 c0 64 ca ba 60 c9 93 3a
       -4.835924e-06 0.00011373892 -0.0015441403 0.0011275224
000130 35 da c5 3a 71 b4 68 39 f9 05 a7 3a 0f 37 3e 3b
       0.0015094938 0.00022192464 0.0012742869 0.0029024517
000140 51 0c 67 ba 71 dd 4d b9 8c e4 bc ba e5 94 2d bb
       -0.0008813786 -0.00019632817 -0.0014411374 -0.0026486453
000150 2a 50 f4 ba a4 f1 3b ba d6 bd a5 39 2f f6 32 38
       -0.0018639613 -0.0007169491 0.0003161269 4.2667783e-05
000160 f5 b2 4a 3a 2f 82 93 ba 1c 42 0c bb 24 9c 01 ba
       0.0007732355 -0.0011254008 -0.002140171 -0.0004944226
000170 ea c9 43 38 10 5e 06 ba 59 3e 86 3b 76 62 57 b9
       4.667967e-05 -0.0005125711 0.004096788 -0.00020540677

residual_blocks.0.linear2.weight f4 [96, 96]
000000 7e 77 64 bc 35 4b e2 3d b1 09 bc 3e 0f ba 1c 3e
       -0.013944505 0.11049501 0.36726144 0.1530535
000010 e1 6e aa bb 95 36 66 be 34 91 a9 be 75 40 6a 3e
       -0.005201206 -0.22481759 -0.33118594 0.22876151
000020 f7 3c e9 bd fe 6c 56 3e 94 52 a5 3d 80 d8 a7 3d
       -0.11388581 0.20940015 0.08072391 0.08195591
000030 7f d3 1d 3c ae df 53 be ab a5 7c 3d 88 07 c8 3b
       0.009632944 -0.20690796 0.06168143 0.0061044134
000040 98 aa 21 3e 68 5e bb 3c d6 30 6c be 82 aa ec bd
       0.15787733 0.022872165 -0.23065504 -0.11555959
000050 98 ce 4e 3e e5 ac 45 be af 06 07 bc 8b 69 c6 3d
       0.20195997 -0.19304235 -0.00824134 0.096880995
000060 ad 37 72 be 29 a6 90 bd e0 6c 74 3e f1 2e d8 3d
       -0.23654051 -0.070629425 0.23869658 0.10555828
000070 7a 18 a7 be 2d d8 a0 be a1 df cc 3d 63 8e a0 be
       -0.32635862 -0.3141493 0.10003591 -0.31358632
000080 c7 e4 ef 3d e2 36 93 bd ce 62 09 be 0e dd cb be
       0.11713558 -0.071882024 -0.13416597 -0.3981709
000090 54 f3 29 be f7 52 bc 3d b3 79 8e be 95 11 00 3e
       -0.16596729 0.09195512 -0.27827224 0.12506707
0000a0 e7 42 0f 3e 14 66 56 3e 11 fd 8d 3e c2 e3 97 3e
       0.13990365 0.20937377 0.27732137 0.29665953
0000b0 3a 7a 11 3e ed 27 1c be 2c d1 0e bd 7b fa 10 bd
       0.14206782 -0.15249605 -0.03486745 -0.035395127
0000c0 e0 4d 12 bd 4c a6 da bd e1 9c 03 3e ff 9e 9a be
       -0.0357188 -0.1067625 0.12852813 -0.3019943
0000d0 89 66 ab 3e 35 27 63 3d 30 78 9a 3c a4 9b 8c be
       0.33476666 0.055457313 0.018856138 -0.27462494
0000e0 21 3c 00 bf 10 e0 18 3e bb 2a a5 3d e1 d0 f3 3e
       -0.5009175 0.14929223 0.08064791 0.476203
0000f0 0b a4 ad 3b 03 eb 15 bf d1 43 e8 3d 7f 51 01 be
       0.0052990965 -0.58561724 0.1134106 -0.12628745
000100 5f 07 28 3c 6e 8c 63 3e b4 12 e7 bd 4b 98 bf 3d
       0.010255664 0.22221538 -0.11282864 0.093552195
000110 b6 69 77 3c a1 db 97 3d 56 61 e4 3d 23 10 df 3d
       0.015100887 0.07414938 0.11151378 0.1089175
000120 30 7b b4 bd c8 f9 bf be a2 c5 01 be ea 1c e4 3d
       -0.08812559 -0.37495255 -0.12673047 0.111383274
000130 bb e1 85 3e 9e be 2f be 69 9e c3 3b 40 85 86 3d
       0.2614878 -0.17162558 0.0059698117 0.06568384
000140 fd 39 e9 3d 56 72 1b 3e d0 2c c9 bd d5 d9 66 3c
       0.113880135 0.15180334 -0.098230004 0.014090021
000150 39 32 a6 3e 5f a4 0f bd 52 5c 98 be 34 23 2d be
       0.32460192 -0.035068866 -0.29757935 -0.1690796
000160 a9 43 b0 bd 6b 4b 1a be a0 af 62 bd 6a ee 00 3e
       -0.08606655 -0.15067832 -0.05534327 0.12590948
000170 99 80 6d be 63 42 58 3e 16 86 1b 3e 23 67 98 be
       -0.23193587 0.21119075 0.15187868 -0.29766187
000180 8b 0b 76 bd 9b 67 31 be 01 17 b9 be 66 1b f1 3d
       -0.060069602 -0.17324679 -0.36150363 0.11772804
000190 7e 97 6b be 67 a4 b1 be b5 6f 82 3e fe 64 d5 bd
       -0.23007008 -0.34695742 0.2547585 -0.10419653
0001a0 6b dd 3e bc ea 5c 4b be d9 aa 5f 3e e7 a1 b2 3d
       -0.01164947 -0.19859663 0.21842517 0.08722287
0001b0 94 5e e5 3e ff 1d 93 3e f1 71 30 3e 8a 05 da bd
       0.4479872 0.28733823 0.17230965 -0.10645588
0001c0 8b f7 80 be 78 40 90 be 4f 60 e4 bd 2c fc f4 bc
       -0.2518886 -0.28174186 -0.11151182 -0.029905401
0001d0 8d da b5 3d 16 b8 0f 3e 9f 03 bb 3e 77 f5 96 bd
       0.08879576 0.14035067 0.365262 -0.073710375
0001e0 08 af 87 3d cf 42 eb 3d e8 e5 8f 3e 43 9f 88 3c
       0.066251814 0.11487352 0.28105092 0.016677504
0001f0 b4 42 5d 3c 7b 5a 9e 3e d2 97 52 3e 73 82 8e 3e
       0.013504673 0.30928406 0.20565727 0.278339
000200 ee 1a d5 bc 14 fd e1 bd 07 ed 42 3e 12 7a 7e 3d
       -0.026013818 -0.11034599 0.19035731 0.062128134
000210 6d 08 87 3e ee ff 16 bd ba 82 30 3e ff 91 f4 3e
       0.26373616 -0.036865167 0.17237368 0.47767636
000220 f9 e9 a1 3e ca 36 68 be ad a5 b3 bc 27 ca 33 3e
       0.3162382 -0.2267715 -0.021929586 0.17557584
000230 47 31 d3 3d 72 a3 19 3d 79 9c 25 be 3a 4c 20 be
       0.10312133 0.03750939 -0.16172971 -0.15654078
000240 99 27 01 be 6d 0e 6c be 48 ee 02 bf bd a3 4b be
       -0.12612762 -0.23052378 -0.5114484 -0.1988668
000250 1c cd c6 3d d8 8f 8f bc 6e c2 60 3e 83 30 03 bc
       0.0970709 -0.017524645 0.21949169 -0.008007172
000260 1d d7 34 3e 9d 81 3f 3e 95 be 32 3e a1 cd 9c bc
       0.17660184 0.18701787 0.17455514 -0.01914102
000270 16 d9 dd 3d 0f 89 98 bd cc 49 2d 3e 2d 9e 6f 3e
       0.108324215 -0.07448017 0.16922683 0.23400183
000280 f2 23 56 be 65 9d c3 bc b5 af 5a 3e d1 32 d6 3d
       -0.2091215 -0.023878762 0.2135609 0.10458911
000290 bb 03 99 bd af bf c7 bd c7 31 d6 bd c4 07 7d bd
       -0.07471415 -0.097533576 -0.10458713 -0.061774984
0002a0 99 44 08 be 01 1d b4 be b4 5f bf be ac b3 04 3e
       -0.13307418 -0.35178378 -0.37377703 0.12959164
0002b0 d7 b5 11 3f 7d 59 e4 3d a2 f8 68 bd fd b6 13 be
       0.5691809 0.11149881 -0.05687774 -0.14425273
0002c0 92 7d 5a be 7f 6f a7 be 97 d4 39 3e e6 b8 f1 3a
       -0.21336964 -0.32702252 0.18147503 0.0018441945
0002d0 89 c0 5c bd 7c 1b 6d 3d a1 18 3c be 69 2b 23 3a
       -0.053894553 0.05788754 -0.1836877 0.0006224425
0002e0 d7 ee 89 3d 19 67 1f 3e 30 f6 a2 bd 3e 1d 04 3d
       0.06735008 0.15566672 -0.07957113 0.03225445
0002f0 a2 01 f6 bc a9 94 8e be 93 58 19 bc 62 f2 3b 3e
       -0.030030075 -0.27847794 -0.009359497 0.1835418
000300 b1 bf cc 3d 29 83 3a be 5e d4 68 3e 7b 9c 8a 3e
       0.099975 -0.18214096 0.22737262 0.2707251
000310 d8 27 e1 be 32 47 53 be ff 41 45 be d2 47 ae 3d
       -0.4397571 -0.20632628 -0.19263457 0.085097924
000320 71 1f 2b 3e e8 4b 0b 3e 3e 7e 43 3e d2 0f 4f bc
       0.16711213 0.13603175 0.19091126 -0.012638049
000330 60 46 23 3e 5a 95 f3 bd 07 b2 39 3e 27 3d 86 3e
       0.15944815 -0.11893721 0.18134318 0.2621853
000340 60 9f 46 3b e2 2e 41 be 61 34 9d be 7c 46 80 be
       0.0030307397 -0.1886554 -0.30704024 -0.25053775
000350 08 a8 7f 3e df 23 b4 bb 73 69 3e 3e 10 78 64 3e
       0.24966443 -0.00549744 0.18594913 0.22311425
000360 1b 7f 60 be ab 19 65 3e 22 84 21 3c b1 0c f5 3d
       -0.21923487 0.22373073 0.009858163 0.11965311
000370 f6 cf 9b be 5d 92 50 3e 66 1c 9a 3d af 16 c1 be
       -0.304321 0.20368333 0.07524948 -0.3771262
000380 3d ea ef bc e2 5d 9b 3d d2 ba 6b 3e 3f 23 28 be
       -0.029286498 0.07586266 0.23020485 -0.16419695
000390 55 e0 d4 bd a4 ac 2a 3d 1a b0 92 be c8 8c 81 3e
       -0.103943504 0.04166855 -0.2864998 0.2530272
0003a0 74 d2 99 3e 93 6d 2a be ab 9d b7 3d 2a 01 bb 3e
       0.30043375 -0.16643362 0.0896562 0.36524326
0003b0 1d ab 9b 3e 9c f5 39 3d 6b fc 0f 3e 7d f5 ac 3c
       0.30403987 0.045400247 0.14061134 0.021113152
0003c0 db b6 54 be 22 c9 f7 bc 36 20 ac bd cd 85 83 be
       -0.20772879 -0.030247275 -0.08404581 -0.2568802
0003d0 86 7c ed 3d 63 65 86 bc 5b 9d 8a 3e 6d cd b7 3c
       0.115960166 -0.016405767 0.27073178 0.022436822
0003e0 1a 7c 85 3d 4a 07 03 3e 93 67 43 be a0 b1 3c 3e
       0.06517811 0.1279575 -0.19082479 0.18427134
0003f0 14 b9 ec be cb 48 0e bf 42 f8 b5 3e 80 eb 1f 3e
       -0.46234953 -0.55579823 0.35540968 0.1561718

residual_blocks.0.linear2.bias f4 [96]
000000 9a 88 de ba 60 59 54 3b 9d 3b b4 ba e0 8b 93 b9
       -0.0016977966 0.0032401904 -0.0013750676 -0.0002814224
000010 64 54 9d 3a aa be 00 b9 03 e4 8e bb eb 91 89 39
       0.00120033 -0.00012278059 -0.004360677 0.00026239394
000020 1d 5b d3 b9 ff e4 31 bb 82 41 ab 38 81 5d d0 3a
       -0.0004031294 -0.002714455 8.166117e-05 0.0015897007
000030 43 f2 d1 b9 9f d9 47 3a 3a 36 87 ba 6d 64 a5 39
       -0.00040044085 0.00076236756 -0.0010315843 0.00031546075
000040 8a 8e 03 3b ee c6 88 39 67 83 2a b9 dc 02 6a 3a
       0.0020073974 0.00026088156 -0.00016261415 0.00089268177
000050 b4 a8 59 ba ad 25 37 3b e9 62 62 ba 45 39 f2 ba
       -0.0008303032 0.002794604 -0.00086359546 -0.0018480202
000060 12 35 0d 3a 17 51 20 3b 46 3d 1f 39 5b e5 db ba
       0.0005386631 0.0024462396 0.00015186248 -0.0016776727
000070 55 40 cb 3a d9 4a 42 3a f3 08 4c 3a ef 34 aa 39
       0.0015506843 0.0007411666 0.0007783316 0.00032464365
000080 00 0e a2 3a d6 b9 06 b9 ce 62 de ba 6c 10 f4 39
       0.0012363791 -0.00012848465 -0.0016966702 0.00046551542
000090 94 ac c0 b9 1f 20 19 3a 2b 37 00 3a 05 26 54 3b
       -0.00036749674 0.0005841273 0.0004891033 0.0032371294
0000a0 38 96 23 3b e4 5a 81 39 c8 57 15 bb d4 1e 77 3a
       0.0024961364 0.00024672516 -0.0022787917 0.0009426896
0000b0 b4 3f 71 3a 38 cf 89 3a f1 f3 0d 3b 07 23 99 3a
       0.0009202913 0.0010514027 0.0021660293 0.0011683413
0000c0 bc 9c f5 3a b7 32 95 ba af c0 b3 ba 6d f1 80 ba
       0.0018738727 -0.0011382912 -0.001371404 -0.0009837575
0000d0 2c 24 64 bb cb 5c 14 3a 98 72 e2 3a 05 c9 a0 ba
       -0.00348116 0.0005659579 0.0017276583 -0.001226694
0000e0 4c 99 50 b9 d4 d9 e8 3a 26 a6 2f ba 33 a2 a2 b9
       -0.00019893533 0.0017765113 -0.0006700478 -0.00031019896
0000f0 96 95 d7 3a c2 c2 27 3b 7e 19 d7 ba 4a 76 1c ba
       0.0016447778 0.0025598262 -0.0016410796 -0.0005968554
000100 04 cb 2a ba 6d 19 ad 3a f5 1b 22 bb 27 48 7c 3a
       -0.0006515237 0.001320643 -0.0024735902 0.00096237886
000110 ab 0b 42 39 c7 50 96 3a 4b 45 8c ba 6b 9c 9e 3a
       0.00018505628 0.0011468165 -0.0010701803 0.001210106
000120 a1 ef 24 3b fa b0 d5 39 b7 b0 41 3a fc 4d 4c ba
       0.0025167244 0.00040758384 0.0007388698 -0.0007793603
000130 ec 46 01 3a 5d 31 59 3a c0 fc ac 3a 4a c5 05 bb
       0.00049315277 0.0008285249 0.0013197884 -0.0020411783
000140 68 90 c3 ba 11 85 9c 39 63 ef 1d ba 57 41 d3 3a
       -0.0014920356 0.0002985378 -0.0006024746 0.0016117495
000150 f0 82 2a 3a 6e 3f df 39 40 ec e3 39 b9 d2 a6 3a
       0.00065044966 0.00042581133 0.00043472834 0.0012727595
000160 f9 65 f5 39 cb 7b 94 ba 06 1d 60 3a 4f 73 2e 3b
       0.00046806017 -0.0011328397 0.00085492467 0.0026619022
000170 d3 6b 81 39 32 5b 18 bb 96 c3 64 38 c9 9a 3d b9
       0.00024685133 -0.0023247716 5.454159e-05 -0.00018082107

residual_blocks.0.bn1.weight f4 [96]
000000 07 50 95 3f 30 62 93 3f 48 6e 82 3f 03 23 93 3f
       1.1665047 1.151434 1.0189905 1.149506
000010 8b 92 a2 3f c9 08 5e 3f 2a 0d 85 3f ce 79 72 3f
       1.2700971 0.86732155 1.0394642 0.9471711
000020 02 ea 6f 3f cd 05 64 3f af 26 8a 3f 04 c3 b2 3f
       0.9371644 0.8907135 1.0793055 1.3965764
000030 0e a4 6a 3f 80 fb 95 3f 93 c9 a3 3f f5 a9 56 3f
       0.9165658 1.1717377 1.279589 0.83853084
000040 a1 a2 a9 3f 4f ef 32 3f 13 10 71 3f 95 8b 2c 3f
       1.3252755 0.69896406 0.9416515 0.67400485
000050 d2 0c 56 3f 45 48 8d 3f e7 cb 5e 3f 99 7f 5b 3f
       0.8361331 1.103768 0.8702988 0.85741574
000060 70 a1 97 3f 4e 0a 70 3f f5 83 7d 3f 76 cd 98 3f
       1.1846142 0.93765724 0.99029475 1.1937702
000070 33 0e 77 3f 0a 0e 98 3f 07 3d a5 3f 79 a5 9c 3f
       0.9650604 1.1879284 1.2909249 1.2237998
000080 67 08 6a 3f d6 b4 94 3f e1 e3 80 3f ac 49 86 3f
       0.9141907 1.1617687 1.0069543 1.0491233
000090 c6 47 8d 3f e8 22 8e 3f 63 13 c1 3f 11 29 90 3f
       1.1037529 1.1104403 1.5084041 1.1262532
0000a0 cf 89 53 3f 5c 39 93 3f c6 54 75 3f f2 f3 64 3f
       0.82632154 1.150188 0.9583248 0.8943473
0000b0 bc 22 63 3f 82 4f 79 3f 6b 29 52 3f 30 b2 7d 3f
       0.88724875 0.97386944 0.8209445 0.9910002
0000c0 ac f5 6d 3f 1a d0 5d 3f 5e bc 59 3f 6d 3a 64 3f
       0.9295299 0.8664566 0.8505305 0.8915165
0000d0 df ef 7c 3f 95 75 00 3f d7 c5 8e 3f ee a2 72 3f
       0.98803514 0.50179416 1.1154126 0.9477986
0000e0 15 01 ac 3f 1a 5b 95 3f cb 26 4d 3f f2 a9 77 3f
       1.343783 1.1668427 0.8013732 0.9674369
0000f0 a0 7c 8e 3f ce b6 a7 3f bd 7e 8b 3f 5b ed 83 3f
       1.1131783 1.3102663 1.0898052 1.030681
000100 c1 f0 5e 3f c8 f8 8d 3f 02 3d 99 3f 07 f7 80 3f
       0.8708611 1.1091547 1.1971743 1.0075387
000110 88 b6 93 3f 7e a2 67 3f cf 35 85 3f fc 11 56 3f
       1.1540079 0.9048232 1.0407046 0.8362119
000120 d8 bf 70 3f 27 c9 5c 3f 7a 7b 88 3f 05 97 54 3f
       0.9404273 0.86244434 1.0662682 0.8304294
000130 66 37 6a 3f 38 38 5e 3f 0f 1c 30 3f 8f e2 7f 3f
       0.9149078 0.86804533 0.68792814 0.99955076
000140 13 f3 7d 3f 10 af 7c 3f e4 90 83 3f 4b 46 96 3f
       0.99199027 0.98704624 1.0278592 1.1740202
000150 6c 1a 49 3f e7 ab 9a 3f 88 10 7a 3f 96 b8 90 3f
       0.7855594 1.208371 0.97681475 1.1306331
000160 24 a2 83 3f c8 5c 4c 3f 41 02 75 3f 64 2e 73 3f
       1.0283856 0.7982907 0.95706564 0.9499266
000170 92 da 8c 3f b2 53 41 3f 3a 4d 6f 3f ec 1f 66 3f
       1.1004202 0.75518334 0.93477213 0.8989246

residual_blocks.0.bn1.bias f4 [96]
000000 c8 bc 16 3e 91 78 c2 bd b2 88 85 bd 30 ec aa be
       0.14720452 -0.094956525 -0.06520213 -0.33383322
000010 a8 b4 87 bd 88 bd 33 be f5 fd c6 3b fb 12 2f bc
       -0.06626254 -0.17552769 0.0060727545 -0.010685678
000020 a2 29 5b be 64 a9 23 bd a7 40 10 bf 57 cc 48 be
       -0.214026 -0.039956465 -0.5634865 -0.196092
000030 9d 8b c2 be 20 80 3d bb 3b 45 06 be bf 94 9e be
       -0.3799714 -0.002891548 -0.13112347 -0.3097286
000040 eb d2 4a be 29 8e 52 bd ac 84 d9 be c0 50 2b be
       -0.19807021 -0.051405106 -0.42484033 -0.16730022
000050 44 64 5a be 6a 4e a3 3b 01 27 8f be 50 bc 78 3c
       -0.21327311 0.004983713 -0.27959445 0.015181616
000060 9a e8 26 bd ba 02 1e be 37 cb ef be ee 9b 44 be
       -0.04074917 -0.15430728 -0.46834728 -0.19200107
000070 d0 93 84 be 6e 07 a0 3d 18 8c 76 be 5b 5d 5d be
       -0.25894022 0.07813917 -0.24076879 -0.21617644
000080 19 04 32 be 76 bd 7c bd 14 9a 99 bd 38 ae f9 bd
       -0.17384376 -0.06170412 -0.07500091 -0.12191433
000090 54 c9 ce ba 23 a9 95 be ad 75 23 be 36 15 32 bd
       -0.0015776553 -0.29230604 -0.15962858 -0.04347726
0000a0 8c e4 99 be a0 5f 43 be 33 cd 87 be 31 89 c2 be
       -0.3005718 -0.19079447 -0.26523742 -0.37995294
0000b0 5d f2 8b be 0e 28 e2 bc 3a 8b 99 3d dc 6a ac be
       -0.27333346 -0.02760699 0.074972585 -0.33675277
0000c0 cc d1 4d be 87 8d 8a be 66 a2 f4 bd b0 ee 2f be
       -0.20099562 -0.27061102 -0.119450375 -0.17180896
0000d0 1a 42 c5 bd 81 83 03 be bb f0 80 bd 27 2d e8 be
       -0.096317485 -0.12843134 -0.06295916 -0.45346949
0000e0 1b e0 81 3d c8 4f ff be a9 f6 5b bd cf ac a0 be
       0.06341573 -0.49865556 -0.05370203 -0.31381842
0000f0 71 b5 c3 bd 3c 31 73 bd 23 45 55 3e 7e 11 32 be
       -0.095560916 -0.059373125 0.20827155 -0.17389485
000100 5a ca 2a be 2a 03 1b be 1f 03 2a be b3 51 00 be
       -0.16678753 -0.15137926 -0.16602753 -0.12531166
000110 92 39 8f be 6e 06 f3 bc ec 4f a0 3c 23 f4 78 be
       -0.2797361 -0.029666152 0.01956936 -0.24311881
000120 99 76 8a 3d 1a 37 b7 bd 43 05 7f be 56 8c 8c be
       0.06760902 -0.08946057 -0.24904351 -0.27450818
000130 df d0 b0 be 51 e5 2d be cc d3 95 be bb db 49 3e
       -0.34534356 -0.16982009 -0.2926315 0.19712727
000140 6e ba 3d bc ef 6d 9c be 79 cb 3a 3d d4 9e 31 be
       -0.011580093 -0.30552623 0.045604203 -0.17345744
000150 5d a4 f9 3c 30 ea eb bd 4f 2c 7b be da ea df bd
       0.030473882 -0.11519277 -0.24528621 -0.10933466
000160 69 66 96 be e6 6e ad be b7 f8 e5 3d 4e cf 51 bd
       -0.29375008 -0.3387367 0.11229079 -0.05122309
000170 e0 de 24 be 82 da 47 be d1 a5 94 3d 83 05 cd bd
       -0.16100645 -0.19516948 0.072581895 -0.10010817
