ai/decrypted_params.npy (npy, 762384 bytes, 1 tensors)

array f8 [95282]
00000000: 0000 0020 55e7 bf3f 0000 00a0 af10 b4bf
00000010: 0000 00e0 7620 a93f 0000 0000 7768 c33f
00000020: 0000 0020 ac88 a03f 0000 0020 1fb3 b7bf
00000030: 0000 00c0 392b c13f 0000 00e0 c677 943f
00000040: 0000 0060 6da8 b53f 0000 0060 7453 c03f
00000050: 0000 00a0 3919 c83f 0000 00e0 6caa c33f
00000060: 0000 00a0 d7ed c03f 0000 00e0 44c9 b83f
00000070: 0000 00e0 f76e b13f 0000 0080 7d71 a8bf
00000080: 0000 0080 d1f5 ccbf 0000 0080 6909 b8bf
00000090: 0000 00e0 8c23 94bf 0000 00e0 a369 96bf
000000a0: 0000 0060 3ae3 bc3f 0000 0080 a05c be3f
000000b0: 0000 0000 dd70 ad3f 0000 0040 f9f6 ce3f
000000c0: 0000 00c0 72e5 a5bf 0000 0040 689e ba3f
000000d0: 0000 00c0 be92 c03f 0000 0080 bb10 a8bf
000000e0: 0000 0060 1384 b93f 0000 0000 cccb b53f
000000f0: 0000 0000 9132 a03f 0000 0060 b614 c53f
00000100: 0000 00c0 4c87 b73f 0000 00c0 58c2 613f
00000110: 0000 00a0 236a d3bf 0000 00a0 f8ae dc3f
00000120: 0000 0000 af57 b13f 0000 00a0 b74f 553f
00000130: 0000 0080 db8f e3bf 0000 0000 010c ca3f
00000140: 0000 00c0 a358 b73f 0000 0080 d49d acbf
00000150: 0000 0040 db15 86bf 0000 00e0 26f4 c83f
00000160: 0000 00a0 5b06 cdbf 0000 00c0 4945 e03f
00000170: 0000 0060 f42a e23f 0000 0020 fcae ab3f
00000180: 0000 0060 dc39 e0bf 0000 0020 6ae0 9d3f
00000190: 0000 0020 30c2 b0bf 0000 0060 870a 83bf
000001a0: 0000 00c0 3560 e2bf 0000 0080 f3c6 a33f
000001b0: 0000 00a0 3f78 d8bf 0000 0040 94ff b4bf
000001c0: 0000 00a0 4b06 adbf 0000 00c0 038a 98bf
000001d0: 0000 00e0 834f c6bf 0000 0040 67dd 92bf
000001e0: 0000 0040 91c0 d33f 0000 00c0 b949 d23f
000001f0: 0000 0020 0b3d e3bf 0000 00c0 5fdc d7bf
00000200: 0000 00c0 c107 a43f 0000 0000 9f17 c4bf
00000210: 0000 00c0 20fd ab3f 0000 0040 07fc c03f
00000220: 0000 0020 c698 debf 0000 0020 b4a4 a53f
00000230: 0000 0060 9d5a e2bf 0000 0060 d0c9 a33f
00000240: 0000 00a0 7a63 b93f 0000 0000 5825 7bbf
00000250: 0000 0080 276a a13f 0000 0060 c9a5 d0bf
00000260: 0000 00e0 769c a23f 0000 0020 47ab b53f
00000270: 0000 00c0 ad20 acbf 0000 0000 05b4 ae3f
00000280: 0000 00c0 3423 a33f 0000 00c0 b78e b23f
00000290: 0000 0080 ce05 c83f 0000 00e0 a5e0 783f
000002a0: 0000 0060 516f c03f 0000 00e0 0dad c0bf
000002b0: 0000 0080 6a46 97bf 0000 0060 73a9 a9bf
000002c0: 0000 00c0 effe 9cbf 0000 0060 51b2 c13f
000002d0: 0000 0080 4bea c13f 0000 00a0 fc93 94bf
000002e0: 0000 00c0 80fe b3bf 0000 0060 c8bb 7d3f
000002f0: 0000 00e0 ffb1 cb3f 0000 00c0 b305 d03f
00000300: 0000 00a0 caa1 b83f 0000 0060 24a7 a5bf
00000310: 0000 00c0 832a c5bf 0000 0060 7090 adbf
00000320: 0000 0060 1214 c2bf 0000 0020 d0ff a63f
00000330: 0000 0040 3719 91bf 0000 0060 2202 e43f
00000340: 0000 0060 a9a9 ae3f 0000 0060 ff22 c03f
00000350: 0000 0060 2d7a aabf 0000 00c0 3cd9 a03f
00000360: 0000 0000 b7ac bdbf 0000 0060 ace6 c2bf
00000370: 0000 0080 a889 c6bf 0000 0040 899f bbbf
00000380: 0000 00a0 867a dabf 0000 0060 1e04 b2bf
00000390: 0000 00a0 10d7 bebf 0000 0000 cd25 a33f
000003a0: 0000 0040 feee 92bf 0000 0040 0d7d 773f
000003b0: 0000 0060 e22c cdbf 0000 0040 b524 9c3f
000003c0: 0000 0080 df4a b13f 0000 0080 2c52 bb3f
000003d0: 0000 00a0 512a cc3f 0000 0040 1a2f c93f
000003e0: 0000 0000 1ba6 cd3f 0000 0040 f858 cb3f
000003f0: 0000 0020 7cff b5bf 0000 00c0 7753 b23f
00000400: 0000 00c0 f3ed 823f 0000 0040 2ea6 6c3f
00000410: 0000 0040 ce42 d0bf 0000 0080 db3a cdbf
00000420: 0000 0040 de2b 9f3f 0000 0060 b34d c53f
00000430: 0000 00c0 a907 e0bf 0000 00c0 e648 b43f
00000440: 0000 00c0 6ed7 c1bf 0000 0040 c3fd c9bf
00000450: 0000 00c0 ed7e c73f 0000 0060 769e b53f
00000460: 0000 0040 78cd 72bf 0000 0000 7f52 c03f
00000470: 0000 00e0 bd4b 58bf 0000 00a0 cfd5 a53f
00000480: 0000 00e0 da94 dabf 0000 00e0 3243 c33f
00000490: 0000 00c0 a41b b3bf 0000 0080 9c0e cf3f
000004a0: 0000 0040 5d4b d4bf 0000 0040 6ed9 d63f
000004b0: 0000 0060 b3ef d0bf 0000 00a0 f040 cd3f
000004c0: 0000 00e0 3af1 d33f 0000 00e0 11c0 e0bf
000004d0: 0000 00c0 c0c5 d13f 0000 00c0 97ae cc3f
000004e0: 0000 0080 ce83 ad3f 0000 0080 4c91 c0bf
000004f0: 0000 00a0 e870 c4bf 0000 0060 9b8f cfbf
00000500: 0000 0040 5b2a a4bf 0000 0000 24fd a83f
00000510: 0000 00a0 ffb8 d73f 0000 0000 8910 be3f
00000520: 0000 0020 2be4 c2bf 0000 0020 5f5b d13f
00000530: 0000 0020 ffea d7bf 0000 00a0 ee98 c93f
00000540: 0000 0020 c89d d33f 0000 0020 2920 b23f
00000550: 0000 00a0 65b3 d23f 0000 0080 d1a1 c53f
00000560: 0000 00c0 3860 e3bf 0000 0020 b634 d63f
00000570: 0000 00e0 29d4 d6bf 0000 0000 32f5 8cbf
00000580: 0000 0080 2f8f a1bf 0000 0080 a78e bf3f
00000590: 0000 00c0 a751 d03f 0000 00e0 ccd9 c13f
000005a0: 0000 0060 a2b0 cd3f 0000 0080 8c51 a5bf
000005b0: 0000 0040 0722 b83f 0000 00e0 a0bf a4bf
000005c0: 0000 00c0 78b9 be3f 0000 0080 0a54 b23f
000005d0: 0000 00c0 57a9 c13f 0000 0000 be25 5f3f
000005e0: 0000 0060 f864 7ebf 0000 00c0 c75e c53f
000005f0: 0000 00a0 0dce b8bf 0000 00a0 f778 c4bf
00000600: 0000 0060 9418 97bf 0000 0020 893d 983f
00000610: 0000 00c0 c4b6 a33f 0000 0040 517f e8bf
00000620: 0000 0040 9e12 b83f 0000 0060 3661 e33f
00000630: 0000 0040 a75e 953f 0000 00c0 d639 e63f
00000640: 0000 0040 7e7e b0bf 0000 0060 a2df b43f
00000650: 0000 00a0 6c97 d0bf 0000 0080 00c9 e5bf
00000660: 0000 0060 9b13 ae3f 0000 00a0 2af5 a23f
00000670: 0000 00a0 074c 63bf 0000 0060 2921 ab3f
00000680: 0000 00e0 0ecf e3bf 0000 0080 aedd b93f
00000690: 0000 0040 8728 a5bf 0000 00e0 2c09 c73f
000006a0: 0000 0000 7319 8c3f 0000 0080 cf87 8c3f
000006b0: 0000 0080 f6ec 973f 0000 00e0 e0ea bbbf
000006c0: 0000 0040 bd40 c7bf 0000 0000 62c2 813f
000006d0: 0000 00a0 d8c1 653f 0000 0040 bf9c d4bf
000006e0: 0000 0020 633b b1bf 0000 0040 10f9 bdbf
000006f0: 0000 0060 82a6 c1bf 0000 00e0 2b8b cabf
00000700: 0000 0000 7215 d2bf 0000 00e0 4563 a93f
00000710: 0000 0000 4130 d3bf 0000 00c0 e4ab c8bf
00000720: 0000 0040 f7b3 cabf 0000 00c0 15e8 c7bf
00000730: 0000 0060 6291 dbbf 0000 0000 3cef c23f
00000740: 0000 0060 3eb4 ba3f 0000 00a0 daad bdbf
00000750: 0000 0040 a5f8 c0bf 0000 0080 1316 b9bf
00000760: 0000 00a0 a518 ba3f 0000 00e0 13e5 c53f
00000770: 0000 0060 0036 ad3f 0000 00e0 4dba a23f
00000780: 0000 0020 f546 cdbf 0000 0080 f38b 99bf
00000790: 0000 0080 8612 bcbf 0000 0020 52d0 bfbf
000007a0: 0000 0000 c067 e5bf 0000 0040 01cc c2bf
000007b0: 0000 00c0 80e9 d3bf 0000 00e0 f007 96bf
000007c0: 0000 00c0 f25e 90bf 0000 00a0 2084 a93f
000007d0: 0000 00a0 49d4 ad3f 0000 0000 7895 a83f
000007e0: 0000 00c0 4cdb a93f 0000 0060 a834 a6bf
000007f0: 0000 00a0 1ac7 dabf 0000 0000 60e8 d9bf
0.124623604118824 -0.07837960869073868 0.04907580837607384 0.15162551403045654 0.03229272738099098 -0.09257692843675613 0.13413164019584656 0.0199881624430418
0.08460124582052231 0.12754683196544647 0.18826980888843536 0.15363846719264984 0.1322583705186844 0.0968211218714714 0.0680994912981987 -0.047740861773490906
-0.2262517809867859 -0.0938936173915863 -0.01966686360538006 -0.021887360140681267 0.11284222453832626 0.11860087513923645 0.05750170350074768 0.24191203713417053
-0.04276617616415024 0.10397960245609283 0.1294783055782318 -0.04700265824794769 0.09967156499624252 0.08514094352722168 0.031635791063308716 0.16469459235668182
0.09190826117992401 0.0021678670309484005 -0.3033532202243805 0.4481793940067291 0.0677441954612732 0.0013007443631067872 -0.6113107204437256 0.20349133014678955
0.09119628369808197 -0.055891647934913635 -0.010783875361084938 0.1949509233236313 -0.2267565280199051 0.5084580183029175 0.5677434802055359 0.0540694035589695
-0.507063090801239 0.029176386073231697 -0.06546307355165482 -0.009297425858676434 -0.5742443799972534 0.038627251982688904 -0.38233938813209534 -0.08202482759952545
-0.05668865516781807 -0.023963984102010727 -0.1743016093969345 -0.01842271164059639 0.3086283802986145 0.2857498526573181 -0.601201593875885 -0.372825562953949
0.039121679961681366 -0.15697085857391357 0.05466558784246445 0.13269129395484924 -0.4780745804309845 0.042272213846445084 -0.5735613703727722 0.038649093359708786
0.09917417913675308 -0.006627410650253296 0.034013018012046814 -0.2601188123226166 0.03634997829794884 0.08464474231004715 -0.05493681877851486 0.05996719002723694
0.0373779758810997 0.07249020040035248 0.18767720460891724 0.006073615979403257 0.1283971518278122 -0.13028119504451752 -0.022729553282260895 -0.05012093111872673
-0.028316255658864975 0.1382543295621872 0.13996261358261108 -0.02009577490389347 -0.07810215651988983 0.007259161677211523 0.2163696140050888 0.2503480315208435
0.09621874243021011 -0.0422908179461956 -0.16535994410514832 -0.05774260684847832 -0.1412375420331955 0.04492044821381569 -0.016697753220796585 0.6252605319023132
0.059888165444135666 0.12606804072856903 -0.05171338841319084 0.0329073891043663 -0.1159166693687439 -0.14766459167003632 -0.1760759949684143 -0.10790307819843292
-0.41372838616371155 -0.07037534564733505 -0.12046913057565689 0.03739777207374573 -0.018489811569452286 0.005734493024647236 -0.22793225944042206 0.027483779937028885
0.0675487220287323 0.1067226231098175 0.22004146873950958 0.1967499554157257 0.23163163661956787 0.21365264058113098 -0.08592963963747025 0.07158611714839935
0.009242920204997063 0.0034972098655998707 -0.2540774941444397 -0.2283586859703064 0.030440781265497208 0.16643373668193817 -0.500935435295105 0.07923738658428192
-0.13938698172569275 -0.2030567228794098 0.1835610568523407 0.08444919437170029 -0.004590482451021671 0.12751758098602295 -0.0014829019783064723 0.042646873742341995
-0.41533538699150085 0.1504882425069809 -0.07464055716991425 0.2426334023475647 -0.3170998692512512 0.35702091455459595 -0.26463016867637634 0.22854430973529816
0.3115985095500946 -0.5234460234642029 0.2776948809623718 0.22407814860343933 0.05764622986316681 -0.12943416833877563 -0.15969569981098175 -0.24657003581523895
-0.03938565403223038 0.04880630970001221 0.37066641449928284 0.11743980646133423 -0.14758814871311188 0.27120187878608704 -0.3737180531024933 0.19997961819171906
0.3065052330493927 0.07080323249101639 0.2921995222568512 0.1690008044242859 -0.605495810508728 0.34696725010871887 -0.3566994369029999 -0.014139547944068909
-0.034295544028282166 0.12327048182487488 0.2549838423728943 0.13945923745632172 0.2319529503583908 -0.04163779318332672 0.09426923096179962 -0.04052450880408287
0.12001757323741913 0.07159486413002014 0.13798043131828308 0.0019010882824659348 -0.0074205114506185055 0.16695496439933777 -0.09689412266016006 -0.159941628575325
-0.022554701194167137 0.02367223985493183 0.03850378841161728 -0.765541672706604 0.0940340906381607 0.6056167483329773 0.02086888626217842 0.6945604085922241
-0.0644301325082779 0.0815373882651329 -0.2592422068119049 -0.6807863712310791 0.05874333903193474 0.037026721984148026 -0.0023555897641927004 0.05298737809062004
-0.6190256476402283 0.1010388433933258 -0.041324831545352936 0.1799675077199936 0.013720415532588959 0.01393091306090355 0.023364879190921783 -0.10905271023511887
-0.18166318535804749 0.008671537041664124 0.0026559096295386553 -0.3220670819282532 -0.06731242686510086 -0.1170816570520401 -0.13789395987987518 -0.20737217366695404
-0.2825589179992676 0.04958551749587059 -0.2998201847076416 -0.19274577498435974 -0.20861712098121643 -0.18677017092704773 -0.4307485520839691 0.14792585372924805
0.10431279987096786 -0.11593405157327652 -0.13258805871009827 -0.09799310564994812 0.10193858295679092 0.17105339467525482 0.057052623480558395 0.03657763823866844
-0.22872795164585114 -0.024947933852672577 -0.10965767502784729 -0.12427247315645218 -0.668914794921875 -0.14685073494911194 -0.3111268877983093 -0.021514667198061943
-0.015987198799848557 0.0498361773788929 0.058260250836610794 0.04801535606384277 0.050501249730587006 -0.04337049648165703 -0.4184023439884186 -0.40480804443359375
